/usr/lib/python3/dist-packages/requests/__init__.py:91: RequestsDependencyWarning: urllib3 (1.26.7) or chardet (3.0.4) doesn't match a supported version!
  RequestsDependencyWarning)
cuda
240 80
tensor([1, 1, 0, 1, 1, 1, 1, 1])
torch.Size([8, 3, 384, 578])
EfficientNet(
  (pool): AdaptiveAvgPool2d(output_size=1)
  (features): Sequential(
    (0): CNNBlock(
      (cnn): Conv2d(3, 35, kernel_size=(3, 3), stride=(2, 2), padding=(1, 1), bias=False)
      (bn): BatchNorm2d(35, eps=1e-05, momentum=0.1, affine=True, track_running_stats=True)
      (silu): SiLU()
    )
    (1): InvertedResidualBlock(
      (conv): Sequential(
        (0): CNNBlock(
          (cnn): Conv2d(35, 35, kernel_size=(3, 3), stride=(1, 1), padding=(1, 1), groups=35, bias=False)
          (bn): BatchNorm2d(35, eps=1e-05, momentum=0.1, affine=True, track_running_stats=True)
          (silu): SiLU()
        )
        (1): SqueezeExcitation(
          (se): Sequential(
            (0): AdaptiveAvgPool2d(output_size=1)
            (1): Conv2d(35, 8, kernel_size=(1, 1), stride=(1, 1))
            (2): SiLU()
            (3): Conv2d(8, 35, kernel_size=(1, 1), stride=(1, 1))
            (4): Sigmoid()
          )
        )
        (2): Conv2d(35, 20, kernel_size=(1, 1), stride=(1, 1), bias=False)
        (3): BatchNorm2d(20, eps=1e-05, momentum=0.1, affine=True, track_running_stats=True)
      )
    )
    (2): InvertedResidualBlock(
      (conv): Sequential(
        (0): CNNBlock(
          (cnn): Conv2d(20, 20, kernel_size=(3, 3), stride=(1, 1), padding=(1, 1), groups=20, bias=False)
          (bn): BatchNorm2d(20, eps=1e-05, momentum=0.1, affine=True, track_running_stats=True)
          (silu): SiLU()
        )
        (1): SqueezeExcitation(
          (se): Sequential(
            (0): AdaptiveAvgPool2d(output_size=1)
            (1): Conv2d(20, 5, kernel_size=(1, 1), stride=(1, 1))
            (2): SiLU()
            (3): Conv2d(5, 20, kernel_size=(1, 1), stride=(1, 1))
            (4): Sigmoid()
          )
        )
        (2): Conv2d(20, 20, kernel_size=(1, 1), stride=(1, 1), bias=False)
        (3): BatchNorm2d(20, eps=1e-05, momentum=0.1, affine=True, track_running_stats=True)
      )
    )
    (3): InvertedResidualBlock(
      (expand_conv): CNNBlock(
        (cnn): Conv2d(20, 120, kernel_size=(3, 3), stride=(1, 1), padding=(1, 1), bias=False)
        (bn): BatchNorm2d(120, eps=1e-05, momentum=0.1, affine=True, track_running_stats=True)
        (silu): SiLU()
      )
      (conv): Sequential(
        (0): CNNBlock(
          (cnn): Conv2d(120, 120, kernel_size=(3, 3), stride=(2, 2), padding=(1, 1), groups=120, bias=False)
          (bn): BatchNorm2d(120, eps=1e-05, momentum=0.1, affine=True, track_running_stats=True)
          (silu): SiLU()
        )
        (1): SqueezeExcitation(
          (se): Sequential(
            (0): AdaptiveAvgPool2d(output_size=1)
            (1): Conv2d(120, 5, kernel_size=(1, 1), stride=(1, 1))
            (2): SiLU()
            (3): Conv2d(5, 120, kernel_size=(1, 1), stride=(1, 1))
            (4): Sigmoid()
          )
        )
        (2): Conv2d(120, 28, kernel_size=(1, 1), stride=(1, 1), bias=False)
        (3): BatchNorm2d(28, eps=1e-05, momentum=0.1, affine=True, track_running_stats=True)
      )
    )
    (4): InvertedResidualBlock(
      (expand_conv): CNNBlock(
        (cnn): Conv2d(28, 168, kernel_size=(3, 3), stride=(1, 1), padding=(1, 1), bias=False)
        (bn): BatchNorm2d(168, eps=1e-05, momentum=0.1, affine=True, track_running_stats=True)
        (silu): SiLU()
      )
      (conv): Sequential(
        (0): CNNBlock(
          (cnn): Conv2d(168, 168, kernel_size=(3, 3), stride=(1, 1), padding=(1, 1), groups=168, bias=False)
          (bn): BatchNorm2d(168, eps=1e-05, momentum=0.1, affine=True, track_running_stats=True)
          (silu): SiLU()
        )
        (1): SqueezeExcitation(
          (se): Sequential(
            (0): AdaptiveAvgPool2d(output_size=1)
            (1): Conv2d(168, 7, kernel_size=(1, 1), stride=(1, 1))
            (2): SiLU()
            (3): Conv2d(7, 168, kernel_size=(1, 1), stride=(1, 1))
            (4): Sigmoid()
          )
        )
        (2): Conv2d(168, 28, kernel_size=(1, 1), stride=(1, 1), bias=False)
        (3): BatchNorm2d(28, eps=1e-05, momentum=0.1, affine=True, track_running_stats=True)
      )
    )
    (5): InvertedResidualBlock(
      (expand_conv): CNNBlock(
        (cnn): Conv2d(28, 168, kernel_size=(3, 3), stride=(1, 1), padding=(1, 1), bias=False)
        (bn): BatchNorm2d(168, eps=1e-05, momentum=0.1, affine=True, track_running_stats=True)
        (silu): SiLU()
      )
      (conv): Sequential(
        (0): CNNBlock(
          (cnn): Conv2d(168, 168, kernel_size=(3, 3), stride=(1, 1), padding=(1, 1), groups=168, bias=False)
          (bn): BatchNorm2d(168, eps=1e-05, momentum=0.1, affine=True, track_running_stats=True)
          (silu): SiLU()
        )
        (1): SqueezeExcitation(
          (se): Sequential(
            (0): AdaptiveAvgPool2d(output_size=1)
            (1): Conv2d(168, 7, kernel_size=(1, 1), stride=(1, 1))
            (2): SiLU()
            (3): Conv2d(7, 168, kernel_size=(1, 1), stride=(1, 1))
            (4): Sigmoid()
          )
        )
        (2): Conv2d(168, 28, kernel_size=(1, 1), stride=(1, 1), bias=False)
        (3): BatchNorm2d(28, eps=1e-05, momentum=0.1, affine=True, track_running_stats=True)
      )
    )
    (6): InvertedResidualBlock(
      (expand_conv): CNNBlock(
        (cnn): Conv2d(28, 168, kernel_size=(3, 3), stride=(1, 1), padding=(1, 1), bias=False)
        (bn): BatchNorm2d(168, eps=1e-05, momentum=0.1, affine=True, track_running_stats=True)
        (silu): SiLU()
      )
      (conv): Sequential(
        (0): CNNBlock(
          (cnn): Conv2d(168, 168, kernel_size=(5, 5), stride=(2, 2), padding=(2, 2), groups=168, bias=False)
          (bn): BatchNorm2d(168, eps=1e-05, momentum=0.1, affine=True, track_running_stats=True)
          (silu): SiLU()
        )
        (1): SqueezeExcitation(
          (se): Sequential(
            (0): AdaptiveAvgPool2d(output_size=1)
            (1): Conv2d(168, 7, kernel_size=(1, 1), stride=(1, 1))
            (2): SiLU()
            (3): Conv2d(7, 168, kernel_size=(1, 1), stride=(1, 1))
            (4): Sigmoid()
          )
        )
        (2): Conv2d(168, 44, kernel_size=(1, 1), stride=(1, 1), bias=False)
        (3): BatchNorm2d(44, eps=1e-05, momentum=0.1, affine=True, track_running_stats=True)
      )
    )
    (7): InvertedResidualBlock(
      (expand_conv): CNNBlock(
        (cnn): Conv2d(44, 264, kernel_size=(3, 3), stride=(1, 1), padding=(1, 1), bias=False)
        (bn): BatchNorm2d(264, eps=1e-05, momentum=0.1, affine=True, track_running_stats=True)
        (silu): SiLU()
      )
      (conv): Sequential(
        (0): CNNBlock(
          (cnn): Conv2d(264, 264, kernel_size=(5, 5), stride=(1, 1), padding=(2, 2), groups=264, bias=False)
          (bn): BatchNorm2d(264, eps=1e-05, momentum=0.1, affine=True, track_running_stats=True)
          (silu): SiLU()
        )
        (1): SqueezeExcitation(
          (se): Sequential(
            (0): AdaptiveAvgPool2d(output_size=1)
            (1): Conv2d(264, 11, kernel_size=(1, 1), stride=(1, 1))
            (2): SiLU()
            (3): Conv2d(11, 264, kernel_size=(1, 1), stride=(1, 1))
            (4): Sigmoid()
          )
        )
        (2): Conv2d(264, 44, kernel_size=(1, 1), stride=(1, 1), bias=False)
        (3): BatchNorm2d(44, eps=1e-05, momentum=0.1, affine=True, track_running_stats=True)
      )
    )
    (8): InvertedResidualBlock(
      (expand_conv): CNNBlock(
        (cnn): Conv2d(44, 264, kernel_size=(3, 3), stride=(1, 1), padding=(1, 1), bias=False)
        (bn): BatchNorm2d(264, eps=1e-05, momentum=0.1, affine=True, track_running_stats=True)
        (silu): SiLU()
      )
      (conv): Sequential(
        (0): CNNBlock(
          (cnn): Conv2d(264, 264, kernel_size=(5, 5), stride=(1, 1), padding=(2, 2), groups=264, bias=False)
          (bn): BatchNorm2d(264, eps=1e-05, momentum=0.1, affine=True, track_running_stats=True)
          (silu): SiLU()
        )
        (1): SqueezeExcitation(
          (se): Sequential(
            (0): AdaptiveAvgPool2d(output_size=1)
            (1): Conv2d(264, 11, kernel_size=(1, 1), stride=(1, 1))
            (2): SiLU()
            (3): Conv2d(11, 264, kernel_size=(1, 1), stride=(1, 1))
            (4): Sigmoid()
          )
        )
        (2): Conv2d(264, 44, kernel_size=(1, 1), stride=(1, 1), bias=False)
        (3): BatchNorm2d(44, eps=1e-05, momentum=0.1, affine=True, track_running_stats=True)
      )
    )
    (9): InvertedResidualBlock(
      (expand_conv): CNNBlock(
        (cnn): Conv2d(44, 264, kernel_size=(3, 3), stride=(1, 1), padding=(1, 1), bias=False)
        (bn): BatchNorm2d(264, eps=1e-05, momentum=0.1, affine=True, track_running_stats=True)
        (silu): SiLU()
      )
      (conv): Sequential(
        (0): CNNBlock(
          (cnn): Conv2d(264, 264, kernel_size=(3, 3), stride=(2, 2), padding=(1, 1), groups=264, bias=False)
          (bn): BatchNorm2d(264, eps=1e-05, momentum=0.1, affine=True, track_running_stats=True)
          (silu): SiLU()
        )
        (1): SqueezeExcitation(
          (se): Sequential(
            (0): AdaptiveAvgPool2d(output_size=1)
            (1): Conv2d(264, 11, kernel_size=(1, 1), stride=(1, 1))
            (2): SiLU()
            (3): Conv2d(11, 264, kernel_size=(1, 1), stride=(1, 1))
            (4): Sigmoid()
          )
        )
        (2): Conv2d(264, 88, kernel_size=(1, 1), stride=(1, 1), bias=False)
        (3): BatchNorm2d(88, eps=1e-05, momentum=0.1, affine=True, track_running_stats=True)
      )
    )
    (10): InvertedResidualBlock(
      (expand_conv): CNNBlock(
        (cnn): Conv2d(88, 528, kernel_size=(3, 3), stride=(1, 1), padding=(1, 1), bias=False)
        (bn): BatchNorm2d(528, eps=1e-05, momentum=0.1, affine=True, track_running_stats=True)
        (silu): SiLU()
      )
      (conv): Sequential(
        (0): CNNBlock(
          (cnn): Conv2d(528, 528, kernel_size=(3, 3), stride=(1, 1), padding=(1, 1), groups=528, bias=False)
          (bn): BatchNorm2d(528, eps=1e-05, momentum=0.1, affine=True, track_running_stats=True)
          (silu): SiLU()
        )
        (1): SqueezeExcitation(
          (se): Sequential(
            (0): AdaptiveAvgPool2d(output_size=1)
            (1): Conv2d(528, 22, kernel_size=(1, 1), stride=(1, 1))
            (2): SiLU()
            (3): Conv2d(22, 528, kernel_size=(1, 1), stride=(1, 1))
            (4): Sigmoid()
          )
        )
        (2): Conv2d(528, 88, kernel_size=(1, 1), stride=(1, 1), bias=False)
        (3): BatchNorm2d(88, eps=1e-05, momentum=0.1, affine=True, track_running_stats=True)
      )
    )
    (11): InvertedResidualBlock(
      (expand_conv): CNNBlock(
        (cnn): Conv2d(88, 528, kernel_size=(3, 3), stride=(1, 1), padding=(1, 1), bias=False)
        (bn): BatchNorm2d(528, eps=1e-05, momentum=0.1, affine=True, track_running_stats=True)
        (silu): SiLU()
      )
      (conv): Sequential(
        (0): CNNBlock(
          (cnn): Conv2d(528, 528, kernel_size=(3, 3), stride=(1, 1), padding=(1, 1), groups=528, bias=False)
          (bn): BatchNorm2d(528, eps=1e-05, momentum=0.1, affine=True, track_running_stats=True)
          (silu): SiLU()
        )
        (1): SqueezeExcitation(
          (se): Sequential(
            (0): AdaptiveAvgPool2d(output_size=1)
            (1): Conv2d(528, 22, kernel_size=(1, 1), stride=(1, 1))
            (2): SiLU()
            (3): Conv2d(22, 528, kernel_size=(1, 1), stride=(1, 1))
            (4): Sigmoid()
          )
        )
        (2): Conv2d(528, 88, kernel_size=(1, 1), stride=(1, 1), bias=False)
        (3): BatchNorm2d(88, eps=1e-05, momentum=0.1, affine=True, track_running_stats=True)
      )
    )
    (12): InvertedResidualBlock(
      (expand_conv): CNNBlock(
        (cnn): Conv2d(88, 528, kernel_size=(3, 3), stride=(1, 1), padding=(1, 1), bias=False)
        (bn): BatchNorm2d(528, eps=1e-05, momentum=0.1, affine=True, track_running_stats=True)
        (silu): SiLU()
      )
      (conv): Sequential(
        (0): CNNBlock(
          (cnn): Conv2d(528, 528, kernel_size=(3, 3), stride=(1, 1), padding=(1, 1), groups=528, bias=False)
          (bn): BatchNorm2d(528, eps=1e-05, momentum=0.1, affine=True, track_running_stats=True)
          (silu): SiLU()
        )
        (1): SqueezeExcitation(
          (se): Sequential(
            (0): AdaptiveAvgPool2d(output_size=1)
            (1): Conv2d(528, 22, kernel_size=(1, 1), stride=(1, 1))
            (2): SiLU()
            (3): Conv2d(22, 528, kernel_size=(1, 1), stride=(1, 1))
            (4): Sigmoid()
          )
        )
        (2): Conv2d(528, 88, kernel_size=(1, 1), stride=(1, 1), bias=False)
        (3): BatchNorm2d(88, eps=1e-05, momentum=0.1, affine=True, track_running_stats=True)
      )
    )
    (13): InvertedResidualBlock(
      (expand_conv): CNNBlock(
        (cnn): Conv2d(88, 528, kernel_size=(3, 3), stride=(1, 1), padding=(1, 1), bias=False)
        (bn): BatchNorm2d(528, eps=1e-05, momentum=0.1, affine=True, track_running_stats=True)
        (silu): SiLU()
      )
      (conv): Sequential(
        (0): CNNBlock(
          (cnn): Conv2d(528, 528, kernel_size=(5, 5), stride=(1, 1), padding=(2, 2), groups=528, bias=False)
          (bn): BatchNorm2d(528, eps=1e-05, momentum=0.1, affine=True, track_running_stats=True)
          (silu): SiLU()
        )
        (1): SqueezeExcitation(
          (se): Sequential(
            (0): AdaptiveAvgPool2d(output_size=1)
            (1): Conv2d(528, 22, kernel_size=(1, 1), stride=(1, 1))
            (2): SiLU()
            (3): Conv2d(22, 528, kernel_size=(1, 1), stride=(1, 1))
            (4): Sigmoid()
          )
        )
        (2): Conv2d(528, 124, kernel_size=(1, 1), stride=(1, 1), bias=False)
        (3): BatchNorm2d(124, eps=1e-05, momentum=0.1, affine=True, track_running_stats=True)
      )
    )
    (14): InvertedResidualBlock(
      (expand_conv): CNNBlock(
        (cnn): Conv2d(124, 744, kernel_size=(3, 3), stride=(1, 1), padding=(1, 1), bias=False)
        (bn): BatchNorm2d(744, eps=1e-05, momentum=0.1, affine=True, track_running_stats=True)
        (silu): SiLU()
      )
      (conv): Sequential(
        (0): CNNBlock(
          (cnn): Conv2d(744, 744, kernel_size=(5, 5), stride=(1, 1), padding=(2, 2), groups=744, bias=False)
          (bn): BatchNorm2d(744, eps=1e-05, momentum=0.1, affine=True, track_running_stats=True)
          (silu): SiLU()
        )
        (1): SqueezeExcitation(
          (se): Sequential(
            (0): AdaptiveAvgPool2d(output_size=1)
            (1): Conv2d(744, 31, kernel_size=(1, 1), stride=(1, 1))
            (2): SiLU()
            (3): Conv2d(31, 744, kernel_size=(1, 1), stride=(1, 1))
            (4): Sigmoid()
          )
        )
        (2): Conv2d(744, 124, kernel_size=(1, 1), stride=(1, 1), bias=False)
        (3): BatchNorm2d(124, eps=1e-05, momentum=0.1, affine=True, track_running_stats=True)
      )
    )
    (15): InvertedResidualBlock(
      (expand_conv): CNNBlock(
        (cnn): Conv2d(124, 744, kernel_size=(3, 3), stride=(1, 1), padding=(1, 1), bias=False)
        (bn): BatchNorm2d(744, eps=1e-05, momentum=0.1, affine=True, track_running_stats=True)
        (silu): SiLU()
      )
      (conv): Sequential(
        (0): CNNBlock(
          (cnn): Conv2d(744, 744, kernel_size=(5, 5), stride=(1, 1), padding=(2, 2), groups=744, bias=False)
          (bn): BatchNorm2d(744, eps=1e-05, momentum=0.1, affine=True, track_running_stats=True)
          (silu): SiLU()
        )
        (1): SqueezeExcitation(
          (se): Sequential(
            (0): AdaptiveAvgPool2d(output_size=1)
            (1): Conv2d(744, 31, kernel_size=(1, 1), stride=(1, 1))
            (2): SiLU()
            (3): Conv2d(31, 744, kernel_size=(1, 1), stride=(1, 1))
            (4): Sigmoid()
          )
        )
        (2): Conv2d(744, 124, kernel_size=(1, 1), stride=(1, 1), bias=False)
        (3): BatchNorm2d(124, eps=1e-05, momentum=0.1, affine=True, track_running_stats=True)
      )
    )
    (16): InvertedResidualBlock(
      (expand_conv): CNNBlock(
        (cnn): Conv2d(124, 744, kernel_size=(3, 3), stride=(1, 1), padding=(1, 1), bias=False)
        (bn): BatchNorm2d(744, eps=1e-05, momentum=0.1, affine=True, track_running_stats=True)
        (silu): SiLU()
      )
      (conv): Sequential(
        (0): CNNBlock(
          (cnn): Conv2d(744, 744, kernel_size=(5, 5), stride=(1, 1), padding=(2, 2), groups=744, bias=False)
          (bn): BatchNorm2d(744, eps=1e-05, momentum=0.1, affine=True, track_running_stats=True)
          (silu): SiLU()
        )
        (1): SqueezeExcitation(
          (se): Sequential(
            (0): AdaptiveAvgPool2d(output_size=1)
            (1): Conv2d(744, 31, kernel_size=(1, 1), stride=(1, 1))
            (2): SiLU()
            (3): Conv2d(31, 744, kernel_size=(1, 1), stride=(1, 1))
            (4): Sigmoid()
          )
        )
        (2): Conv2d(744, 124, kernel_size=(1, 1), stride=(1, 1), bias=False)
        (3): BatchNorm2d(124, eps=1e-05, momentum=0.1, affine=True, track_running_stats=True)
      )
    )
    (17): InvertedResidualBlock(
      (expand_conv): CNNBlock(
        (cnn): Conv2d(124, 744, kernel_size=(3, 3), stride=(1, 1), padding=(1, 1), bias=False)
        (bn): BatchNorm2d(744, eps=1e-05, momentum=0.1, affine=True, track_running_stats=True)
        (silu): SiLU()
      )
      (conv): Sequential(
        (0): CNNBlock(
          (cnn): Conv2d(744, 744, kernel_size=(5, 5), stride=(2, 2), padding=(2, 2), groups=744, bias=False)
          (bn): BatchNorm2d(744, eps=1e-05, momentum=0.1, affine=True, track_running_stats=True)
          (silu): SiLU()
        )
        (1): SqueezeExcitation(
          (se): Sequential(
            (0): AdaptiveAvgPool2d(output_size=1)
            (1): Conv2d(744, 31, kernel_size=(1, 1), stride=(1, 1))
            (2): SiLU()
            (3): Conv2d(31, 744, kernel_size=(1, 1), stride=(1, 1))
            (4): Sigmoid()
          )
        )
        (2): Conv2d(744, 212, kernel_size=(1, 1), stride=(1, 1), bias=False)
        (3): BatchNorm2d(212, eps=1e-05, momentum=0.1, affine=True, track_running_stats=True)
      )
    )
    (18): InvertedResidualBlock(
      (expand_conv): CNNBlock(
        (cnn): Conv2d(212, 1272, kernel_size=(3, 3), stride=(1, 1), padding=(1, 1), bias=False)
        (bn): BatchNorm2d(1272, eps=1e-05, momentum=0.1, affine=True, track_running_stats=True)
        (silu): SiLU()
      )
      (conv): Sequential(
        (0): CNNBlock(
          (cnn): Conv2d(1272, 1272, kernel_size=(5, 5), stride=(1, 1), padding=(2, 2), groups=1272, bias=False)
          (bn): BatchNorm2d(1272, eps=1e-05, momentum=0.1, affine=True, track_running_stats=True)
          (silu): SiLU()
        )
        (1): SqueezeExcitation(
          (se): Sequential(
            (0): AdaptiveAvgPool2d(output_size=1)
            (1): Conv2d(1272, 53, kernel_size=(1, 1), stride=(1, 1))
            (2): SiLU()
            (3): Conv2d(53, 1272, kernel_size=(1, 1), stride=(1, 1))
            (4): Sigmoid()
          )
        )
        (2): Conv2d(1272, 212, kernel_size=(1, 1), stride=(1, 1), bias=False)
        (3): BatchNorm2d(212, eps=1e-05, momentum=0.1, affine=True, track_running_stats=True)
      )
    )
    (19): InvertedResidualBlock(
      (expand_conv): CNNBlock(
        (cnn): Conv2d(212, 1272, kernel_size=(3, 3), stride=(1, 1), padding=(1, 1), bias=False)
        (bn): BatchNorm2d(1272, eps=1e-05, momentum=0.1, affine=True, track_running_stats=True)
        (silu): SiLU()
      )
      (conv): Sequential(
        (0): CNNBlock(
          (cnn): Conv2d(1272, 1272, kernel_size=(5, 5), stride=(1, 1), padding=(2, 2), groups=1272, bias=False)
          (bn): BatchNorm2d(1272, eps=1e-05, momentum=0.1, affine=True, track_running_stats=True)
          (silu): SiLU()
        )
        (1): SqueezeExcitation(
          (se): Sequential(
            (0): AdaptiveAvgPool2d(output_size=1)
            (1): Conv2d(1272, 53, kernel_size=(1, 1), stride=(1, 1))
            (2): SiLU()
            (3): Conv2d(53, 1272, kernel_size=(1, 1), stride=(1, 1))
            (4): Sigmoid()
          )
        )
        (2): Conv2d(1272, 212, kernel_size=(1, 1), stride=(1, 1), bias=False)
        (3): BatchNorm2d(212, eps=1e-05, momentum=0.1, affine=True, track_running_stats=True)
      )
    )
    (20): InvertedResidualBlock(
      (expand_conv): CNNBlock(
        (cnn): Conv2d(212, 1272, kernel_size=(3, 3), stride=(1, 1), padding=(1, 1), bias=False)
        (bn): BatchNorm2d(1272, eps=1e-05, momentum=0.1, affine=True, track_running_stats=True)
        (silu): SiLU()
      )
      (conv): Sequential(
        (0): CNNBlock(
          (cnn): Conv2d(1272, 1272, kernel_size=(5, 5), stride=(1, 1), padding=(2, 2), groups=1272, bias=False)
          (bn): BatchNorm2d(1272, eps=1e-05, momentum=0.1, affine=True, track_running_stats=True)
          (silu): SiLU()
        )
        (1): SqueezeExcitation(
          (se): Sequential(
            (0): AdaptiveAvgPool2d(output_size=1)
            (1): Conv2d(1272, 53, kernel_size=(1, 1), stride=(1, 1))
            (2): SiLU()
            (3): Conv2d(53, 1272, kernel_size=(1, 1), stride=(1, 1))
            (4): Sigmoid()
          )
        )
        (2): Conv2d(1272, 212, kernel_size=(1, 1), stride=(1, 1), bias=False)
        (3): BatchNorm2d(212, eps=1e-05, momentum=0.1, affine=True, track_running_stats=True)
      )
    )
    (21): InvertedResidualBlock(
      (expand_conv): CNNBlock(
        (cnn): Conv2d(212, 1272, kernel_size=(3, 3), stride=(1, 1), padding=(1, 1), bias=False)
        (bn): BatchNorm2d(1272, eps=1e-05, momentum=0.1, affine=True, track_running_stats=True)
        (silu): SiLU()
      )
      (conv): Sequential(
        (0): CNNBlock(
          (cnn): Conv2d(1272, 1272, kernel_size=(5, 5), stride=(1, 1), padding=(2, 2), groups=1272, bias=False)
          (bn): BatchNorm2d(1272, eps=1e-05, momentum=0.1, affine=True, track_running_stats=True)
          (silu): SiLU()
        )
        (1): SqueezeExcitation(
          (se): Sequential(
            (0): AdaptiveAvgPool2d(output_size=1)
            (1): Conv2d(1272, 53, kernel_size=(1, 1), stride=(1, 1))
            (2): SiLU()
            (3): Conv2d(53, 1272, kernel_size=(1, 1), stride=(1, 1))
            (4): Sigmoid()
          )
        )
        (2): Conv2d(1272, 212, kernel_size=(1, 1), stride=(1, 1), bias=False)
        (3): BatchNorm2d(212, eps=1e-05, momentum=0.1, affine=True, track_running_stats=True)
      )
    )
    (22): InvertedResidualBlock(
      (expand_conv): CNNBlock(
        (cnn): Conv2d(212, 1272, kernel_size=(3, 3), stride=(1, 1), padding=(1, 1), bias=False)
        (bn): BatchNorm2d(1272, eps=1e-05, momentum=0.1, affine=True, track_running_stats=True)
        (silu): SiLU()
      )
      (conv): Sequential(
        (0): CNNBlock(
          (cnn): Conv2d(1272, 1272, kernel_size=(3, 3), stride=(1, 1), padding=(1, 1), groups=1272, bias=False)
          (bn): BatchNorm2d(1272, eps=1e-05, momentum=0.1, affine=True, track_running_stats=True)
          (silu): SiLU()
        )
        (1): SqueezeExcitation(
          (se): Sequential(
            (0): AdaptiveAvgPool2d(output_size=1)
            (1): Conv2d(1272, 53, kernel_size=(1, 1), stride=(1, 1))
            (2): SiLU()
            (3): Conv2d(53, 1272, kernel_size=(1, 1), stride=(1, 1))
            (4): Sigmoid()
          )
        )
        (2): Conv2d(1272, 352, kernel_size=(1, 1), stride=(1, 1), bias=False)
        (3): BatchNorm2d(352, eps=1e-05, momentum=0.1, affine=True, track_running_stats=True)
      )
    )
    (23): InvertedResidualBlock(
      (expand_conv): CNNBlock(
        (cnn): Conv2d(352, 2112, kernel_size=(3, 3), stride=(1, 1), padding=(1, 1), bias=False)
        (bn): BatchNorm2d(2112, eps=1e-05, momentum=0.1, affine=True, track_running_stats=True)
        (silu): SiLU()
      )
      (conv): Sequential(
        (0): CNNBlock(
          (cnn): Conv2d(2112, 2112, kernel_size=(3, 3), stride=(1, 1), padding=(1, 1), groups=2112, bias=False)
          (bn): BatchNorm2d(2112, eps=1e-05, momentum=0.1, affine=True, track_running_stats=True)
          (silu): SiLU()
        )
        (1): SqueezeExcitation(
          (se): Sequential(
            (0): AdaptiveAvgPool2d(output_size=1)
            (1): Conv2d(2112, 88, kernel_size=(1, 1), stride=(1, 1))
            (2): SiLU()
            (3): Conv2d(88, 2112, kernel_size=(1, 1), stride=(1, 1))
            (4): Sigmoid()
          )
        )
        (2): Conv2d(2112, 352, kernel_size=(1, 1), stride=(1, 1), bias=False)
        (3): BatchNorm2d(352, eps=1e-05, momentum=0.1, affine=True, track_running_stats=True)
      )
    )
    (24): CNNBlock(
      (cnn): Conv2d(352, 1408, kernel_size=(1, 1), stride=(1, 1), bias=False)
      (bn): BatchNorm2d(1408, eps=1e-05, momentum=0.1, affine=True, track_running_stats=True)
      (silu): SiLU()
    )
  )
  (classifier): Sequential(
    (0): Dropout(p=0.3, inplace=False)
    (1): Linear(in_features=1408, out_features=2, bias=True)
  )
)
Epoch 0/34
----------
Train Accuracy tensor(0.7740, dtype=torch.float64)
Validation Loss is 0.5243663210421801
Validation Accuracy is 0.790625
One of the best validation accuracy found.

Epoch 1/34
----------
Train Accuracy tensor(0.7859, dtype=torch.float64)
Validation Loss is 0.5358878079801798
Validation Accuracy is 0.790625
Epoch 2/34
----------
…
