…
torch.Size([48, 256, 1, 1])
torch.Size([48])
torch.Size([192, 48, 1, 1])
torch.Size([192])
torch.Size([192, 48, 3, 3])
torch.Size([192])
torch.Size([48, 384, 1, 1])
torch.Size([48])
torch.Size([192, 48, 1, 1])
torch.Size([192])
torch.Size([192, 48, 3, 3])
torch.Size([192])
torch.Size([64, 384, 1, 1])
torch.Size([64])
torch.Size([256, 64, 1, 1])
torch.Size([256])
torch.Size([256, 64, 3, 3])
torch.Size([256])
torch.Size([64, 512, 1, 1])
torch.Size([64])
torch.Size([256, 64, 1, 1])
torch.Size([256])
torch.Size([256, 64, 3, 3])
torch.Size([256])
torch.Size([2, 512, 1, 1])
torch.Size([2])
736450
SqueezeNet_DWC(
  (conv): Conv2d(3, 96, kernel_size=(7, 7), stride=(2, 2))
  (relu): ReLU(inplace=True)
  (maxpool): MaxPool2d(kernel_size=3, stride=2, padding=0, dilation=1, ceil_mode=False)
  (fire1): FireModule(
    (squeeze): Conv2d(96, 16, kernel_size=(1, 1), stride=(1, 1))
    (relu): ReLU(inplace=True)
    (expand1x1): Conv2d(16, 64, kernel_size=(1, 1), stride=(1, 1))
    (relu1): ReLU(inplace=True)
    (expand3x3): Conv2d(16, 64, kernel_size=(3, 3), stride=(1, 1), padding=(1, 1))
    (relu2): ReLU(inplace=True)
  )
  (fire2): FireModule(
    (squeeze): Conv2d(128, 16, kernel_size=(1, 1), stride=(1, 1))
    (relu): ReLU(inplace=True)
    (expand1x1): Conv2d(16, 64, kernel_size=(1, 1), stride=(1, 1))
    (relu1): ReLU(inplace=True)
    (expand3x3): Conv2d(16, 64, kernel_size=(3, 3), stride=(1, 1), padding=(1, 1))
    (relu2): ReLU(inplace=True)
  )
  (fire3): FireModule(
    (squeeze): Conv2d(128, 32, kernel_size=(1, 1), stride=(1, 1))
    (relu): ReLU(inplace=True)
    (expand1x1): Conv2d(32, 128, kernel_size=(1, 1), stride=(1, 1))
    (relu1): ReLU(inplace=True)
    (expand3x3): Conv2d(32, 128, kernel_size=(3, 3), stride=(1, 1), padding=(1, 1))
    (relu2): ReLU(inplace=True)
  )
  (maxpool1): MaxPool2d(kernel_size=3, stride=2, padding=0, dilation=1, ceil_mode=False)
  (fire4): FireModule(
    (squeeze): Conv2d(256, 32, kernel_size=(1, 1), stride=(1, 1))
    (relu): ReLU(inplace=True)
    (expand1x1): Conv2d(32, 128, kernel_size=(1, 1), stride=(1, 1))
    (relu1): ReLU(inplace=True)
    (expand3x3): Conv2d(32, 128, kernel_size=(3, 3), stride=(1, 1), padding=(1, 1))
    (relu2): ReLU(inplace=True)
  )
  (fire5): FireModule(
    (squeeze): Conv2d(256, 48, kernel_size=(1, 1), stride=(1, 1))
    (relu): ReLU(inplace=True)
    (expand1x1): Conv2d(48, 192, kernel_size=(1, 1), stride=(1, 1))
    (relu1): ReLU(inplace=True)
    (expand3x3): Conv2d(48, 192, kernel_size=(3, 3), stride=(1, 1), padding=(1, 1))
    (relu2): ReLU(inplace=True)
  )
  (fire6): FireModule(
    (squeeze): Conv2d(384, 48, kernel_size=(1, 1), stride=(1, 1))
    (relu): ReLU(inplace=True)
    (expand1x1): Conv2d(48, 192, kernel_size=(1, 1), stride=(1, 1))
    (relu1): ReLU(inplace=True)
    (expand3x3): Conv2d(48, 192, kernel_size=(3, 3), stride=(1, 1), padding=(1, 1))
    (relu2): ReLU(inplace=True)
  )
  (fire7): FireModule(
    (squeeze): Conv2d(384, 64, kernel_size=(1, 1), stride=(1, 1))
    (relu): ReLU(inplace=True)
    (expand1x1): Conv2d(64, 256, kernel_size=(1, 1), stride=(1, 1))
    (relu1): ReLU(inplace=True)
    (expand3x3): Conv2d(64, 256, kernel_size=(3, 3), stride=(1, 1), padding=(1, 1))
    (relu2): ReLU(inplace=True)
  )
  (maxpool2): MaxPool2d(kernel_size=3, stride=2, padding=0, dilation=1, ceil_mode=False)
  (fire8): FireModule(
    (squeeze): Conv2d(512, 64, kernel_size=(1, 1), stride=(1, 1))
    (relu): ReLU(inplace=True)
    (expand1x1): Conv2d(64, 256, kernel_size=(1, 1), stride=(1, 1))
    (relu1): ReLU(inplace=True)
    (expand3x3): Conv2d(64, 256, kernel_size=(3, 3), stride=(1, 1), padding=(1, 1))
    (relu2): ReLU(inplace=True)
  )
  (dropout): Dropout(p=0.5, inplace=False)
  (convLast): Conv2d(512, 2, kernel_size=(1, 1), stride=(1, 1))
  (relu1): ReLU(inplace=True)
  (aap): AdaptiveAvgPool2d(output_size=(1, 1))
)
total_trainable_parameters are : 0.74M
/DATA/raj13/.local/lib/python3.7/site-packages/torch/nn/functional.py:718: UserWarning: Named tensors and all their associated APIs are an experimental feature and subject to change. Please do not use them for anything important until they are released as stable. (Triggered internally at  /pytorch/c10/core/TensorImpl.h:1156.)
…
